1_5_CNN_Layers/saved_models/fashionminst_1.pt (torch, 70879 bytes, 6 tensors)

conv1.weight f4 [10, 1, 3, 3]
00000000: 5a84 9bbe 028e 3d3d 55c9 373e 8f0f 6a3e
00000010: ffca b93c ad8b 9c3c 0f95 633b 1dd0 19be
00000020: 7813 8fbd 2033 e13e 4e35 11bf f465 1c3e
00000030: 438c 6b3f ab7e 91bf 9eee 2c3e 42a4 813f
00000040: 20aa 7fbf 81f6 63bd 90f3 14bc 7729 4c3f
00000050: bcab 1a3f c5d1 c8be 2e23 223f 1c67 63be
00000060: c35e 5cbd a351 903e 7533 30bf 3c42 663e
00000070: fae2 a0be 77a2 b83d 6999 0f3d 0cbf a5be
00000080: 2956 ccbb dafd 3cbe 85a1 22be d743 89be
00000090: afc8 c73e ee30 1e3d a2be f7be cf27 133d
000000a0: 4e69 bdbd 7c2d 0e3f 48ca 173e 7b15 9c3e
000000b0: 11d2 643e 0a87 96bf ce0a 94bf 2403 1abf
000000c0: 6545 ec3d 20ae 9dbd afef 453f 8938 89be
000000d0: 0c06 933e a2aa ad3e a293 9dbe 170f 523e
000000e0: ad7b 47be 3441 84be a007 7bbe 2878 89be
000000f0: 2779 4abd 2f56 fa3d e610 1cbd 8a9d edbe
00000100: f8f2 96bf 5109 29be e1b9 1dbf 429f b4bf
00000110: 5703 12bf 5e0d efbc ac98 2bbf 22f0 93be
00000120: 3409 0ebf afa8 a53e e7ea 1c3e f1e8 91bf
00000130: d975 9f3e 39d2 f03e 1021 24bf f6d3 6a3e
00000140: a9e9 dc3e dab8 7c3e 0605 8cbd 68f0 fabd
00000150: 8992 9d3e 0d12 fc3e bb92 53bf 4644 f43e
00000160: ee79 8d3c 3687 fbbc
-0.30374414 0.046278007 0.17947896 0.22857498 0.022679804 0.019109571 0.0034726297 -0.15020795
-0.06986135 0.43984318 -0.5672196 0.15273267 0.920109 -1.1366781 0.168879 1.0128253
-0.99868965 -0.055655006 -0.009091273 0.7975077 0.60418296 -0.3922254 0.6333493 -0.22207302
-0.05380131 0.28187284 -0.6882852 0.22486204 -0.3142317 0.09015363 0.035058413 -0.3237232
-0.006235857 -0.18456212 -0.15881927 -0.2680957 0.39020297 0.03862088 -0.4838763 0.035926636
-0.09248601 0.55538154 0.14823258 0.30485138 0.22345759 -1.1759961 -1.1565797 -0.6016104
0.115366735 -0.07699227 0.77318853 -0.26800945 0.2871555 0.33919245 -0.30776697 0.20513569
-0.19480772 -0.25830996 -0.24514627 -0.26849484 -0.049431946 0.122234695 -0.038102053 -0.46409255
-1.1792898 -0.1650746 -0.61611754 -1.4111102 -0.57036346 -0.029181179 -0.67029834 -0.28894144
-0.5548279 0.32355258 0.15323983 -1.1399213 0.31144598 0.47035387 -0.6411295 0.22932419
0.4314702 0.2467989 -0.06836896 -0.12252885 0.3077586 0.49232522 -0.8264577 0.47708338
0.017270055 -0.030704122

conv1.bias f4 [10]
00000000: ac90 29be 8aff 3bbd 2af2 98bc 8943 5ebe
00000010: 4f25 ccb9 1973 b73d fa49 28be 066b 5e3f
00000020: 6e3e acbd 60b8 fc3c
-0.16559094 -0.045897998 -0.01867016 -0.2170545 -0.0003893771 0.089575 -0.1643447 0.86882055
-0.08410345 0.030849636

conv2.weight f4 [50, 10, 3, 3]
00000000: d259 d7bc b7ec 973d c12c 13bd 12d6 afbd
00000010: 68c6 983d 46c2 a7bd c018 bb3c a48d b23d
00000020: 3f07 69bd c217 debd edc2 e7bd f99d 35bd
00000030: aa84 86bd 8c63 cabd 2c41 d3bd a0f4 d13c
00000040: 098b 923c 674b bc3d 8edc 363c 3b42 6f3c
00000050: a9f6 39bd 3a09 a63d 23c6 cdbd 59c3 21bc
00000060: bc7e 47bd 6af3 d8bc 09f4 c6bc 6b7c ad3b
00000070: 5f2c 0dbc ed78 84bd 2908 993d bd68 803d
00000080: 0b92 5d3d 8e99 82bd 3290 2c3d b4a1 913d
00000090: 3205 0abd eff1 00be 0f27 b6bc b077 be3d
000000a0: 449a 1b3d 5172 99bd cdc6 53bd 040a e0bc
000000b0: b51f c93c 1f70 fa3c c813 bdbb 49b6 3ebd
000000c0: fe86 a8bd 4026 8b3d a92b 2b3d f86c 563c
000000d0: 8904 8d3c 77d5 9c3c 8503 30bd d4f9 da3c
000000e0: f308 82bd 2a50 543d f665 60bd d7ce aabc
000000f0: d7b6 4ebb 3741 d33d 5e4e a13c 3cb2 86bd
00000100: 72d3 c0bd 8cc1 fabd 2c4b f83c 8ec0 3e3c
00000110: 0ee7 e3bd b72a 5e3a 6d7c 693c 4971 7ebd
00000120: 4c2b b23d 4974 2dbd 1838 283d f241 82bd
00000130: 4f50 2abd 6c95 2e3d 23ca a13d 9742 c1bc
00000140: c544 8f3b cad5 adbd f487 efbc 909c d2bc
00000150: 510c 8e3d b090 e43d eb4b 923d e296 1a3d
00000160: 706a dcbb bf84 bdbd e573 31bd dce0 d8bc
00000170: 2466 603d c030 033d b442 c83d e8c6 d33d
00000180: e129 863c 0545 94bd 8850 c93c 8012 32bc
00000190: 9031 b73d 2d46 84bd c223 2f3c d762 1fbe
000001a0: 1605 63be 90c6 0a3e 3261 94bd 2a0c 42bd
000001b0: 4f1b 81be fd6b 7cbe 8f08 bcbe 1887 2b3d
000001c0: 4ad9 033e 38fb e9bd 1079 4f3e 035e 8a3d
000001d0: c97c 5b3e 6e95 e5ba fea2 453d 846d b4bc
000001e0: b9fc cd3d bc81 053d e930 153d cca1 b5bc
000001f0: 9851 483c c654 67bd 853e 02be 983a 593c
00000200: 1ad1 edbd b2c7 79bd a3a8 e9ba 693b a7b9
00000210: 68cc 183e b9f6 2d3e c672 a33d b0c0 e43d
00000220: ebd7 073d 73b8 953c ff59 ec3d 9724 163e
00000230: bc18 1e3d fccf f3bd 387f 313d ea8a a3bc
00000240: d39c 093d 2988 6c3d 55e8 a33d 20ed 82bd
00000250: 5793 a63d a17b 35bd fe53 49bc 8152 15bd
00000260: 0811 7cbd 9e29 9f3d 8020 073e 03d9 11bc
00000270: 376d a6bd a54b 1cbe 8931 823d b3ca 633c
00000280: 28ee e6bd 4ef2 2dbe d529 143d b158 7abd
00000290: 22e6 26be 9b07 d2ba 6ab2 f9bd 6595 29be
000002a0: 6334 d6bd f09d 58bd 9754 bbbc c630 2fbe
000002b0: 7f79 2abe b479 a3bd 4c28 45bc b893 a23d
000002c0: 1b42 c3bd 3ab5 423e a967 1f3d 6ab0 af3d
000002d0: 6434 c93c 92ae 44bd 0876 9c3c 653d 4fbd
000002e0: 4b9e 2f3c 7a61 eebc 638a 953d 8610 40bc
000002f0: 1ad0 9dbd 4289 1fbc b8b8 d1bd 1794 c3bd
00000300: 82e8 8cbc 100b cfbd ca03 0ebe 79f9 8cbd
00000310: 48eb 8c3c da74 02bd 5eec 4ebd efec 0d3d
00000320: b76c af3d bd3b d5bd 91e1 003c 2c46 a9bd
00000330: 616a 363d a263 c63c 2724 a53c 27db 55bd
00000340: 7207 8f3c e6d7 7cbd 9615 47bd 499a a93d
00000350: 2fbf 91bb 7262 25bd 55a1 fcbc 142d 7cbd
00000360: e832 01bc 1853 733c d5d9 4cbd 2122 683d
00000370: 753a afbd 9fe0 41bd 5044 3bbc 5df4 b03c
00000380: fea6 acbc 59b7 0b3b 3333 15be a4d2 e7bd
00000390: 9967 97bc 4bad abbd 13eb 1abe 2c6c 01be
000003a0: 47be eabd 1167 bcbd a5ee d6bd 0675 303d
000003b0: 102a bbbd 6ac6 4f3d a985 18bd 88c0 673d
000003c0: 9c0c 44bd 9262 b5bd f0b9 903d 9790 f8bd
000003d0: 793e abbd 6480 e5bd 582c 37bd 1dae dbbd
000003e0: cad4 eabd b329 0c3c bf5d 7fbd 288b 18be
000003f0: 2b76 853c 6aaa a6bc 31ff 0bb9 2ad0 8c3d
-0.026287947 0.07418197 -0.035931353 -0.085857525 0.07459718 -0.081913516 0.02283895 0.08718422
-0.056891676 -0.10844375 -0.11316476 -0.044340108 -0.065682724 -0.09882268 -0.10315165 0.025629342
0.017888563 0.09194069 0.011160983 0.014603193 -0.04540125 0.081072286 -0.10047557 -0.009873235
-0.048704848 -0.026483256 -0.024286287 0.005294373 -0.008616536 -0.06468377 0.074722596 0.06269977
0.054094356 -0.063769445 0.042129703 0.071109205 -0.03369636 -0.1259229 -0.022235421 0.09300172
0.037988916 -0.07492507 -0.051703263 -0.027348526 0.024551252 0.030571042 -0.0057701804 -0.04656056
-0.08228873 0.06794405 0.041789684 0.013087504 0.017214077 0.019144757 -0.042972106 0.026730455
-0.06349363 0.051834263 -0.054784738 -0.020850582 -0.0031542087 0.10315173 0.019690689 -0.06576964
-0.0941533 -0.122439474 0.030309282 0.011642588 -0.111280546 0.0008474993 0.014250857 -0.062119756
0.086996645 -0.042347226 0.04106912 -0.06360234 -0.041580494 0.04262297 0.07899883 -0.023591323
0.0043722116 -0.08488043 -0.029239632 -0.02570942 0.06935943 0.111604095 0.071433865 0.03774155
-0.0067265555 -0.09253835 -0.043323416 -0.026474409 0.05478491 0.032028913 0.097783476 0.10340673
0.016377391 -0.07239727 0.024574533 -0.010868669 0.08945 -0.064586975 0.010689678 -0.15565048
-0.22169909 0.13552308 -0.07245101 -0.04737488 -0.25216147 -0.2465057 -0.3672528 0.041876882
0.12875858 -0.11424869 0.20261025 0.067562126 0.2143432 -0.0017515847 0.048251145 -0.022024877
0.10057969 0.032594427 0.036423597 -0.022171877 0.012226485 -0.05647733 -0.12719162 0.013258599
-0.116121486 -0.06098146 -0.0017826747 -0.00031896986 0.14921725 0.16988648 0.07980876 0.11169565
0.0331649 0.018276429 0.11540603 0.14662395 0.038597807 -0.11904904 0.043334216 -0.0199637
0.033596825 0.05774704 0.08003298 -0.06392884 0.081335716 -0.044307355 -0.012288092 -0.036455635
-0.06153968 0.0777161 0.13195992 -0.008901837 -0.081263 -0.15263231 0.06357104 0.013903308
-0.112758934 -0.16986963 0.036172707 -0.06111974 -0.16298726 -0.0016023995 -0.12192233 -0.16560896
-0.10459211 -0.052884996 -0.022867484 -0.1710845 -0.1664791 -0.079821974 -0.012033533 0.07938331
-0.09534093 0.19014445 0.038917217 0.0857857 0.024561115 -0.048018046 0.01909925 -0.05059566
0.010718892 -0.029099215 0.07301786 -0.0117226895 -0.07705708 -0.009737315 -0.102403104 -0.0954973
-0.017200712 -0.10109532 -0.13868633 -0.06883521 0.017202035 -0.03184972 -0.050518386 0.034649786
0.085656576 -0.10411785 0.007866279 -0.08265337 0.044535045 0.02421743 0.02015884 -0.052210953
0.017459605 -0.061729334 -0.04860457 0.08281381 -0.0044478397 -0.040377088 -0.030838648 -0.061566427
-0.007885672 0.014851354 -0.05001243 0.056673173 -0.08556072 -0.047333356 -0.011429861 0.021600896
-0.021075722 0.0021319 -0.14570312 -0.113194734 -0.018482016 -0.083826624 -0.15128736 -0.1263892
-0.11462074 -0.09199346 -0.104947366 0.043080352 -0.09138882 0.05072633 -0.037236843 0.056580096
-0.047863588 -0.088566914 0.07066715 -0.12136953 -0.08361525 -0.11206129 -0.044720024 -0.10726569
-0.114663675 0.008554864 -0.062345263 -0.14896834 0.016291698 -0.020344932 -0.00013351139 0.06875642

conv2.bias f4 [50]
00000000: eea2 1abd ecc9 7b3d 0446 113c f443 86bd
00000010: 122e c1bd 2b0f 95bd 93b4 0ebe a76c c43d
00000020: 4e35 863d 63ff debd 3b53 acbd 697a c8bd
00000030: c4d6 05bd 400e a3b9 a333 a83d b782 283e
00000040: ebaa aebd 243d fa3d 6be3 bdbc 7530 db3c
00000050: 153c 4cbe 59e6 80bc dc92 c4bb 5ad6 ad3c
00000060: 7adb 9bbd b714 6fbd 8c97 4fbc e494 1d3d
00000070: 19e3 ffbd 4080 f4bc 0ba0 c73d 868e 9fbd
00000080: 0bb2 003e 20e2 96bc ef4c 86bd 35ec b23c
00000090: bbbe 07bc 2d04 85be d091 c3bd 0896 c2bd
000000a0: e839 823e 1035 abbe 05c3 8c3d a55a 09be
000000b0: b0a1 9dbd bf30 c13d ac11 7ebd cde4 333d
000000c0: d49c d53c d4fa 893e
-0.037753038 0.061471865 0.008866791 -0.0655593 -0.09432615 -0.07278284 -0.13936071 0.09591036
0.06553136 -0.10888555 -0.084143125 -0.09788973 -0.03267552 -0.000311004 0.08212974 0.16456114
-0.08528694 0.12218693 -0.02317973 0.026756505 -0.19944794 -0.015734838 -0.0059989523 0.021220375
-0.07610221 -0.058369365 -0.012670409 0.03847207 -0.12494487 -0.02984631 0.09747323 -0.07790856
0.12567918 -0.018418372 -0.06557643 0.021841148 -0.00828522 -0.25979748 -0.09549296 -0.095012724
0.25434804 -0.3343892 0.068731345 -0.13413484 -0.07696855 0.09433126 -0.062028572 0.043919373
0.026075758 0.2694918

linear.weight f4 [10, 1250]
00000000: 8395 bd3d 1e66 9fbb 6487 90bc 2c83 f93c
00000010: 8f3a 083d f3cd c23d d9bd 693c f58f d93c
00000020: 3e26 b0bc 3679 2c3b 8254 32bc 0e95 993c
00000030: c363 193c 0d84 0bbd 4691 a73a 5cb4 37bd
00000040: bd51 ebbc 5f45 9fbc ef65 18bd 8b67 d8bc
00000050: b417 71bd bf83 3abc 3ed2 1abd 0bad 8cbc
00000060: aa26 81bc f9b1 623d bd24 f13d d977 8d3d
00000070: 7ba5 303d b312 afbd 40f9 513c 9ec6 a83d
00000080: 2a38 d43d e71a d03d 21b0 1cbd 0639 57bc
00000090: 77c4 da3c 7951 c8bc 31f1 383c 1569 b9bd
000000a0: feb3 64bb 820a 8dbc 73dd c9bc feb2 b939
000000b0: 0664 f6bc 98ba 7bbd 5d9a afbc 1e02 dabb
000000c0: 1708 07bc d0ea 063c 361b 113e ecb6 4f3d
000000d0: b6c0 553a acbd ee3c f9cd c93d 1b82 f33d
000000e0: 292f 1b3d d0fe 963c 9332 82bc 49c0 6b3d
000000f0: 237a afbc db2b dd3c 3ab7 92bc 2a95 313c
00000100: cb22 3fbd 22eb 9ebd eeec 743c 72ab df3c
00000110: 2fa6 01bd 8ae7 b7bd 32b6 b2bd 27d9 ea3b
00000120: 2517 12bc 4a38 a1bb 4b7b 94bd a374 8d3d
00000130: e99c 5bbb 1f68 023e daef 64bd 657c 913d
00000140: 22a8 823d 84b6 bf3d 1ddf fd3d 1f58 083c
00000150: 1bc7 ce3d 4a4d 78bd 92dc 59be 26ba 49bd
00000160: 74f6 863d cdc1 a63c 4922 29be a932 2bbd
00000170: 9707 88bd f50b 003d a6e2 b6bd 58b0 6dbe
00000180: 4b55 5dbd 097c 9ebd e5e7 46bd 220a e63c
00000190: 0a4f 203d 0c7b fdbb b909 5b3c 5db5 8f3c
000001a0: 7f21 b13c 2763 653c 4c89 923d 216c 263a
000001b0: 7744 6dba 2bbb 713a 99a5 943b d11e 323c
000001c0: 3275 543c 921c a63c 9df0 41bc 515c 3dbd
000001d0: c3a5 0cbc 689d 27bd c6a6 1fbd bc25 74bd
000001e0: 0d91 8fbc 26cd 0ebc f61e b5bc d7f7 2abd
000001f0: 704d 51bd a6a1 12bd 06c0 b03c 64bf 4e3d
00000200: 8bf1 0b3d fba6 48bd bfd9 e53c 3892 f4bc
00000210: e46d 243d f432 833d 11b8 1f3c f883 893d
00000220: 7aa3 93bd 3145 903c 2aed b03c d960 7b3c
00000230: 6e2b 53bc f7e8 ccbc ac7f 6ebc 50d8 38bb
00000240: d483 a5bc 5d54 e9bc 05a6 45bd b40a d4bb
00000250: 91ac 22bc dded 48bb c89b ac3d 212a 213a
00000260: 211d 873e f8ab b0b9 9c00 07bb 9444 3a3e
00000270: 4cb5 023e 05b8 3e3d 3e8b 313c 0fda 3d3d
00000280: 4756 83bd 77f7 d03d 9265 b83a 5a54 8dbd
00000290: bfcf b53d e048 3abe 25c5 923d bddd 063d
000002a0: c220 aabd 7d66 b33c 4fae 51be ca50 80bd
000002b0: 8294 d5bb c1f8 e9bd 8768 52be e78c c73d
000002c0: 9bf3 923d ad51 d43d d7b9 9d3d ea96 063e
000002d0: 3e93 7f3d 364c 523d 8ecb 0b3d e0bc 463d
000002e0: 43aa 0fbd c689 9d3c 60fb c13d e946 f7bc
000002f0: 7a8f 75bd 6d44 bfbd 1319 a4bd 4280 5b3d
00000300: 78fc 8e3c 791e 2bbd 0aa8 aabd b573 8bbd
00000310: d6c5 913d 78ec 9c3d abee 123d eb67 1fbd
00000320: ee35 80bc a1cd 0abb 57c4 203d 0fca 043d
00000330: da4c 173d 7d63 07bc ef74 d5bc c450 43bb
00000340: 7bf4 d43a f28c 5b3c 8f9b c13d 6e4a 92bc
00000350: e580 05bb c328 833c c8ae f7bc 91ee 5d3c
00000360: 42b4 8cbc ad4a dcbc 6164 023a f363 48bd
00000370: e0a6 4fbc 8fe1 eb3b 00a5 653c 46aa ae3c
00000380: d3c9 32bb d2cd 333c 2c83 003d 29ce dabd
00000390: cf2b cf3c e7cd 493e dbd9 c63c 62cd b1bd
000003a0: d16c c1bd cb39 92bd 7632 003e b6d6 f43c
000003b0: d2f7 463e 6043 683c 342f a53a 58b8 6c3e
000003c0: d56b f5bd 319f d13d 8bd2 c2bd 57e8 46bd
000003d0: 0fb8 293e d9e2 883e b9a4 dbbe 16b5 9fbe
000003e0: ce05 3cbd 0bfc adbc 96d1 e63c 6cae 24bd
000003f0: 6da8 9abd 7323 813b b2c6 c13d 632d 3cbb
0.09257033 -0.0048644682 -0.017642684 0.030458055 0.03325897 0.09511938 0.014266455 0.026557902
-0.02150261 0.0026317365 -0.010884406 0.018747833 0.009362164 -0.03406148 0.0012784384 -0.04484974
-0.0287255 -0.019442258 -0.037206586 -0.02641656 -0.058860496 -0.01138395 -0.03779816 -0.017172357
-0.015765507 0.05534551 0.117745854 0.06907625 0.043126564 -0.085484885 0.0128157735 0.08241008
0.10362275 0.10161381 -0.038253907 -0.013136154 0.02670501 -0.024452912 0.011287973 -0.09053246
-0.0034897323 -0.017216925 -0.024641728 0.0003541931 -0.030076992 -0.061457247 -0.02143591 -0.0066530844
-0.008241675 0.008234695 0.14170536 0.050711557 0.00081540213 0.029143177 0.09853739 0.1189005
0.037886772 0.018432051 -0.015893256 0.057556424 -0.021420544 0.026998451 -0.017909635 0.010838786
-0.04666404 -0.07759692 0.014949067 0.027303431 -0.031652626 -0.089797094 -0.08726157 0.007167
-0.008916651 -0.0049200403 -0.07250079 0.06907012 -0.0033510274 0.12735032 -0.055892803 0.071038045
0.06379725 0.09360984 0.12396071 0.008321791 0.1009657 -0.060620584 -0.21275547 -0.04924979
0.06589976 0.020356083 -0.16516985 -0.04179636 -0.06642073 0.031261403 -0.089299485 -0.23211801
-0.05403642 -0.077385016 -0.048560996 0.028081004 0.039137878 -0.0077356156 0.013369017 0.017542535
0.021622417 0.014000691 0.071550936 0.000634851 -0.00090510346 0.00092213106 0.0045363423 0.010871605
0.012967395 0.020277295 -0.011837152 -0.046230618 -0.008584443 -0.0409216 -0.038977407 -0.0596063
-0.01752522 -0.008715903 -0.02210949 -0.041740265 -0.05109924 -0.03579869 0.021575939 0.050475493
0.0341659 -0.04898737 0.028057931 -0.029854879 0.040143862 0.06406203 0.009748475 0.06714624
-0.07208915 0.017611118 0.021597464 0.0153429145 -0.012888772 -0.02501343 -0.014556807 -0.0028205104
-0.020204462 -0.02848261 -0.04825403 -0.0064710025 -0.009928838 -0.0030659356 0.084281504 0.00061479403
0.2638941 -0.00033697463 -0.0020599728 0.18190223 0.12764472 0.046562213 0.010836421 0.046350535
-0.064129405 0.1020345 0.0014068356 -0.069008544 0.08877515 -0.18191862 0.071665086 0.03292631
-0.08307029 0.021899456 -0.2047665 -0.06265409 -0.0065179477 -0.11424399 -0.20547687 0.09743672
0.0717537 0.10367141 0.07701462 0.13143507 0.06239628 0.05134221 0.03412967 0.04851997
-0.035074484 0.019230735 0.09471774 -0.03018518 -0.059951283 -0.09339223 -0.08012595 0.053589113
0.01745437 -0.041777108 -0.08332832 -0.06809179 0.07117812 0.0766229 0.035872143 -0.038917463
-0.015650716 -0.0021179693 0.039249744 0.03241926 0.036938526 -0.008263466 -0.026056735 -0.0029802779
0.0016247177 0.013400303 0.094534986 -0.017857756 -0.0020371017 0.016010648 -0.03023471 0.013545648
-0.017175797 -0.026891077 0.0004974064 -0.048923444 -0.012674063 0.0071985195 0.01401639 0.021321427
-0.002728094 0.010974364 0.031375095 -0.10683853 0.025289444 0.19707452 0.024273803 -0.08681752
-0.09444583 -0.071399294 0.1251925 0.029887538 0.19430473 0.01417622 0.0012602569 0.23117197
-0.11983458 0.102354415 -0.09512814 -0.04856142 0.16574119 0.2673557 -0.4289911 -0.31192845
-0.045903973 -0.021238348 0.02817611 -0.040205404 -0.07551656 0.0039409935 0.09461726 -0.0028713576

linear.bias f4 [10]
00000000: 42c5 04bb 9aaf 9cbd 8a30 903e a8f3 f5bd
00000010: e35b 06bf 1041 6fbe 2e53 df3e f4c6 993d
00000020: 3836 e03d c593 d9bb
-0.0020259176 -0.07650681 0.28162032 -0.12009364 -0.5248396 -0.23364663 0.4361815 0.075086504
0.109478414 -0.00663993
